…
patient1_((3000, 1000)) >patient3_((2800, 1000))
2025-03-22 18:22:26 INFO     Pair search estimate is complete.
2025-03-22 18:22:26 INFO     Starting PICASA common training...
2025-03-22 18:22:26 INFO     {'device': 'cuda', 'batch_size': 100, 'input_dim': 1000, 'embedding_dim': 1000, 'attention_dim': 15, 'latent_dim': 15, 'encoder_layers': [100, 15], 'projection_layers': [25, 25], 'learning_rate': 0.001, 'pair_search_method': 'approx_50', 'pair_importance_weight': 0.1, 'corruption_tol': 10.0, 'cl_loss_mode': 'none', 'epochs': 1, 'meta_epochs': 5}
2025-03-22 18:22:27 INFO     PICASACommonNet(
  (embedding): GeneEmbedor(
    (embedding): Embedding(1000, 15)
    (emb_norm): LayerNorm((15,), eps=1e-05, elementwise_affine=True)
  )
  (attention): ScaledDotAttention()
  (pooling): AttentionPooling()
  (encoder): ENCODER(
    (fc): Stacklayers(
      (layers): ModuleList(
        (0): Linear(in_features=1000, out_features=100, bias=True)
        (1): BatchNorm1d(100, eps=1e-05, momentum=0.1, affine=True, track_running_stats=True)
        (2): ReLU()
        (3): Dropout(p=0.1, inplace=False)
        (4): Linear(in_features=100, out_features=15, bias=True)
        (5): BatchNorm1d(15, eps=1e-05, momentum=0.1, affine=True, track_running_stats=True)
        (6): ReLU()
        (7): Dropout(p=0.1, inplace=False)
      )
    )
  )
  (projector_cl): MLP(
    (fc): Stacklayers(
      (layers): ModuleList(
        (0): Linear(in_features=15, out_features=25, bias=True)
        (1): BatchNorm1d(25, eps=1e-05, momentum=0.1, affine=True, track_running_stats=True)
        (2): ReLU()
        (3): Dropout(p=0.1, inplace=False)
        (4): Linear(in_features=25, out_features=25, bias=True)
        (5): BatchNorm1d(25, eps=1e-05, momentum=0.1, affine=True, track_running_stats=True)
        (6): ReLU()
        (7): Dropout(p=0.1, inplace=False)
      )
    )
  )
)
2025-03-22 18:22:27 INFO     meta_epochs : 1/5
2025-03-22 18:22:27 INFO     Training pair - patient3_patient2
2025-03-22 18:22:28 INFO     ====> Epoch: 1 Average loss: 5.2581
2025-03-22 18:22:28 INFO     Training pair switch - patient2_patient3
2025-03-22 18:22:29 INFO     ====> Epoch: 1 Average loss: 5.0993
…
2025-03-22 22:02:48 INFO     ====> Epoch: 1 Average loss: 4.6685
2025-03-22 22:02:48 INFO     Training pair switch - patient1_patient2
2025-03-22 22:02:49 INFO     ====> Epoch: 1 Average loss: 4.6688
2025-03-22 22:02:49 INFO     Completed training...model saved in /home/BCCRC.CA/ssubedi/projects/experiments/picasa/picasa_reproducibility/analysis/tutorial/results/picasa_common.model
2025-03-22 22:02:53 INFO     eval :patient1_patient2
2025-03-22 22:03:02 INFO     eval :patient2_patient1
2025-03-22 22:08:31 INFO     PICASAUniqueNet(
  (u_encoder): MLP(
    (fc): Stacklayers(
      (layers): ModuleList(
        (0): Linear(in_features=1000, out_features=128, bias=True)
        (1): BatchNorm1d(128, eps=1e-05, momentum=0.1, affine=True, track_running_stats=True)
        (2): ReLU()
        (3): Dropout(p=0.1, inplace=False)
        (4): Linear(in_features=128, out_features=15, bias=True)
        (5): BatchNorm1d(15, eps=1e-05, momentum=0.1, affine=True, track_running_stats=True)
        (6): ReLU()
        (7): Dropout(p=0.1, inplace=False)
      )
    )
  )
  (u_decoder): MLP(
    (fc): Stacklayers(
      (layers): ModuleList(
        (0): Linear(in_features=30, out_features=128, bias=True)
        (1): BatchNorm1d(128, eps=1e-05, momentum=0.1, affine=True, track_running_stats=True)
        (2): ReLU()
        (3): Dropout(p=0.1, inplace=False)
        (4): Linear(in_features=128, out_features=128, bias=True)
        (5): BatchNorm1d(128, eps=1e-05, momentum=0.1, affine=True, track_running_stats=True)
        (6): ReLU()
        (7): Dropout(p=0.1, inplace=False)
      )
    )
  )
  (zinb_scale): Linear(in_features=128, out_features=1000, bias=True)
  (zinb_dropout): Linear(in_features=128, out_features=1000, bias=True)
  (batch_discriminator): Linear(in_features=15, out_features=2, bias=True)
)
2025-03-22 22:08:31 INFO     Creating dataloader for training PICASA unique model.
2025-03-22 22:08:31 INFO     Training... PICASE unique model.
2025-03-22 22:08:31 INFO     ====> Epoch: 0 Average loss: 1257.0936
2025-03-22 22:08:34 INFO     ====> Epoch: 10 Average loss: 964.8452
2025-03-22 22:08:36 INFO     ====> Epoch: 20 Average loss: 910.4597
2025-03-22 22:08:39 INFO     ====> Epoch: 30 Average loss: 870.9267
…
2025-03-22 22:09:24 INFO     ====> Epoch: 220 Average loss: 742.4893
2025-03-22 22:09:27 INFO     ====> Epoch: 230 Average loss: 742.1227
2025-03-22 22:09:30 INFO     ====> Epoch: 240 Average loss: 741.6528
2025-03-22 22:09:32 INFO     Completed training...model saved in /home/BCCRC.CA/ssubedi/projects/experiments/picasa/picasa_reproducibility/analysis/tutorial/results/picasa_unique.model
2025-03-22 22:09:32 INFO     Creating dataloader for evaluating PICASA unique model.
2025-03-22 22:11:12 INFO     PICASABaseNet(
  (u_encoder): MLP(
    (fc): Stacklayers(
      (layers): ModuleList(
        (0): Linear(in_features=1000, out_features=128, bias=True)
        (1): BatchNorm1d(128, eps=1e-05, momentum=0.1, affine=True, track_running_stats=True)
        (2): ReLU()
        (3): Dropout(p=0.1, inplace=False)
        (4): Linear(in_features=128, out_features=15, bias=True)
        (5): BatchNorm1d(15, eps=1e-05, momentum=0.1, affine=True, track_running_stats=True)
        (6): ReLU()
        (7): Dropout(p=0.1, inplace=False)
      )
    )
  )
  (u_decoder): MLP(
    (fc): Stacklayers(
      (layers): ModuleList(
        (0): Linear(in_features=15, out_features=128, bias=True)
        (1): BatchNorm1d(128, eps=1e-05, momentum=0.1, affine=True, track_running_stats=True)
        (2): ReLU()
        (3): Dropout(p=0.1, inplace=False)
        (4): Linear(in_features=128, out_features=128, bias=True)
        (5): BatchNorm1d(128, eps=1e-05, momentum=0.1, affine=True, track_running_stats=True)
        (6): ReLU()
        (7): Dropout(p=0.1, inplace=False)
      )
    )
  )
  (zinb_scale): Linear(in_features=128, out_features=1000, bias=True)
  (zinb_dropout): Linear(in_features=128, out_features=1000, bias=True)
  (batch_discriminator): Linear(in_features=15, out_features=2, bias=True)
)
2025-03-22 22:11:12 INFO     Creating dataloader for training PICASA base model.
2025-03-22 22:11:12 INFO     Training... PICASE base model.
2025-03-22 22:11:12 INFO     ====> Epoch: 0 Average loss: 1242.1732
2025-03-22 22:11:14 INFO     ====> Epoch: 10 Average loss: 952.9188
2025-03-22 22:11:16 INFO     ====> Epoch: 20 Average loss: 899.2815
2025-03-22 22:11:18 INFO     ====> Epoch: 30 Average loss: 862.0857
…
